GUI/resnet_best_lat256_img512.pth (torch, 537965 bytes, 6 tensors)

fc1.weight f4 [512, 256]
0	0x3c1d86d3	0.009614664
1	0x3d5e3e4b	0.054258626
2	0x3d61e8b4	0.055153564
3	0x3d6b3cab	0.057430904
4	0x3c412c13	0.011790293
5	0xbd4708e0	-0.04859245
6	0x3d87c288	0.06628901
7	0xbcb8063c	-0.02246391
8	0xbd632705	-0.055457134
9	0x3d7bba68	0.061457068
10	0xbc2719f3	-0.010199058
11	0xbcc7b2e2	-0.02437729
12	0xbd806356	-0.06268947
13	0x3d718336	0.058963023
14	0x3d52a4e0	0.05142677
15	0xbc131201	-0.00897646
16	0xbd6031d7	-0.05473503
17	0xbc088ea0	-0.008334786
18	0xbd693592	-0.056935854
19	0x3d004415	0.031314928
20	0xbd81b1a3	-0.0633271
21	0xbd0cc3bb	-0.03436635
22	0x3c96a4f0	0.018389195
23	0xbc113261	-0.008862109
24	0x3bae5c18	0.005321037
25	0xbd3e0550	-0.046391785
26	0xbba306ee	-0.0049751913
27	0x3d584243	0.052797567
28	0xbd0ddb7a	-0.034633137
29	0xbcf563b9	-0.029954778
30	0x3c94e1fe	0.018174168
31	0xbc12e425	-0.008965527
32	0x3d0dc23d	0.03460907
33	0x3c85a682	0.016314749
34	0xbd1ad253	-0.037798237
35	0x3c1c7395	0.009549041
36	0xbd143aee	-0.036189012
37	0x3c421b6f	0.011847361
38	0x3d1c6b5f	0.038188335
39	0xbd40b580	-0.047048092
40	0x3ce3a91e	0.027790602
41	0x3d509c0d	0.05093007
42	0xbd7fb7f0	-0.062431276
43	0xbd4f0e51	-0.050550763
44	0xbd0f6ed1	-0.035017792
45	0x3d6a88e5	0.05725946
46	0xbd11309a	-0.03544674
47	0x3bc1341b	0.005896104
48	0x3d5ff275	0.054674584
49	0x3ba89001	0.0051441197
50	0x3d119b7f	0.035548683
51	0x3cbbacac	0.022909485
52	0x3c87fb66	0.016599368
53	0xbbda3eb6	-0.0066603078
54	0xbc5760c9	-0.013145634
55	0x3cc0e3d0	0.02354613
56	0xbd69cca2	-0.05707992
57	0xbcf71877	-0.030163033
58	0xbd88ba2f	-0.06676137
59	0x3d35b90e	0.044365935
60	0x3ce9f1f5	0.028557757
61	0x3d3c79e4	0.04601468
62	0xbb16d9ff	-0.002301812
63	0x3b51cdd2	0.0032013548
64	0x3d2c23a4	0.042026177
65	0x3c5c8b97	0.013461015
66	0xbc1c9fed	-0.009559614
67	0xbd86cd35	-0.06582109
68	0xbbd04091	-0.006355353
69	0xbca8ee02	-0.020621303
70	0xbcd09c6e	-0.025465216
71	0x3ca5c867	0.02023716
72	0xbc62eb97	-0.013850114
73	0x3d3d2857	0.04618105
74	0x3cece6d0	0.028918654
75	0xbcc55c62	-0.024091903
76	0x3d760fff	0.06007385
77	0xbbb56c2a	-0.005536576
78	0xbc05fc1e	-0.008177785
79	0xbd53cf92	-0.051711626
80	0xbc2c91b6	-0.010532787
81	0xbd432d85	-0.047650833
82	0xbd170e77	-0.03687903
83	0xbc087996	-0.00832977
84	0xbd34b165	-0.04411449
85	0x3d04b1d0	0.032396138
86	0x3cb0574f	0.021526007
87	0xbca1cd1b	-0.019751122
88	0xbccf015b	-0.025269201
89	0xbc95a243	-0.018265849
90	0xbd44c3f5	-0.04803844
91	0x3d697630	0.056997478
92	0x3d3c996c	0.046044752
93	0x3ce5d96f	0.028057782
94	0xbaee4d0d	-0.0018180922
95	0xbb881d4a	-0.004153882
96	0xbcf94469	-0.030428128
97	0xbce4a2c8	-0.027909651
98	0x3c68714e	0.01418717
99	0x3ce09b54	0.027417816
100	0x3d74f326	0.059802197
101	0x3c635d14	0.013877172
102	0x3c0fd4a6	0.008778727
103	0xbb8881be	-0.004165857
104	0x3c291c85	0.010321741
105	0xbd731355	-0.05934461
106	0x3d14d570	0.036336362
107	0xbd5cbe84	-0.053892627
108	0xbc72ce86	-0.014819747
109	0x3d4dccc5	0.05024411
110	0x3c7c40f9	0.01539635
111	0xba7db48d	-0.0009678088
112	0xbc641cad	-0.013922852
113	0x3d2f4936	0.04279443
114	0xbb174388	-0.0023081023
115	0x3cda50af	0.026649801
116	0xbbf2fd0e	-0.0074154204
117	0xbacffc52	-0.0015868044
118	0xbc63952d	-0.013890547
119	0xbc385e94	-0.011253018
120	0xbc804648	-0.015658513
121	0x3d13e3c4	0.036105886
122	0xbcbae07e	-0.022812124
123	0x3bc27cb3	0.0059352755
124	0x3d62d7b2	0.055381484
125	0x38ed6912	0.000113206115
126	0x3d347a05	0.04406168
127	0xbc3528dd	-0.011057106
128	0x3d388319	0.0450469
129	0xbd14dda3	-0.03634418
130	0xbda7f766	-0.082014844
131	0xbcd1dbbc	-0.025617473
132	0x3d8b6a38	0.06807369
133	0xbcb0bf6f	-0.021575658
134	0x3d5177a4	0.05113949
135	0xbd330202	-0.043703087
136	0xbcc16d7d	-0.023611778
137	0xbbb0cefe	-0.005395769
138	0x3d57cb0c	0.052683875
139	0x3cda1351	0.026620539
140	0xbc3eed00	-0.011653185
141	0xbd1017af	-0.035178836
142	0xbcde77dc	-0.027156763
143	0x3a2559dd	0.0006307641
144	0x3d1c1248	0.03810337
145	0x3d84a704	0.06477168
146	0xbd0b6e99	-0.03404102
147	0xbc3e4713	-0.011613625
148	0xbc9b8203	-0.018982893
149	0xbd92e412	-0.07172407
150	0xbcf02e5d	-0.029318983
151	0x3a04259b	0.0005041004
152	0xbce6e5b1	-0.028185697
153	0x3c62ac9b	0.013835098
154	0x3d615903	0.05501653
155	0x3bee1c2d	0.0072665424
156	0x3d743431	0.059620086
157	0x3d60a940	0.05484891
158	0xbbfd6e34	-0.0077340845
159	0xbd1da974	-0.03849168
160	0x3cc9d2fd	0.02463674
161	0x3d0bab09	0.03409866
162	0x3ab89c1a	0.0014084608
163	0xbd1aee87	-0.037825134
164	0x3d66b04f	0.056320485
165	0xbc46f458	-0.012143217
166	0xbd24858d	-0.040166426
167	0xbd50f2bc	-0.05101274
168	0x3d4ee2ab	0.050509136
169	0xbc348d08	-0.011019953
170	0x3c6310b6	0.013858965
171	0x3bdf7e00	0.0068204403
172	0x3d4f9860	0.050682425
173	0x3d4c13e9	0.049823675
174	0x3d1338cb	0.035942834
175	0xbd34a63f	-0.044103857
176	0x3d324f23	0.043532502
177	0x3d29e342	0.041476496
178	0x3d190b80	0.037364483
179	0x3cf95b8f	0.030439166
180	0x3d4cb420	0.049976468
181	0x3d76f6a2	0.0602938
182	0xbd440126	-0.047852658
183	0xbd62b488	-0.05534795
184	0x3d324ecb	0.043532174
185	0x3d91d9e2	0.07121636
186	0xbd2805ad	-0.041021038
187	0xbcac14a2	-0.021005932
188	0xbc4d8b2f	-0.012545391
189	0xbd34153d	-0.043965567
190	0x3d88f249	0.06686837
191	0x3d58960c	0.05287747
192	0xbd6e76ee	-0.05821889
193	0x3cde8bed	0.027166331
194	0x3d62e9e3	0.055398833
195	0xbd1fb153	-0.03898747
196	0xbd3c9fd2	-0.046050854
197	0x3cb4faf4	0.02209232
198	0x3cfd1163	0.03089208
199	0xbd41484b	-0.047188085
200	0xbcc7a194	-0.024369039
201	0x3c9ac592	0.018893037
202	0xbd4ff230	-0.050768077
203	0xbd63b3ff	-0.05559158
204	0x3d18698f	0.037210044
205	0x3d083bd4	0.03326018
206	0xbcda9394	-0.026681699
207	0x3d2450e2	0.0401162
208	0xbc810f54	-0.01575438
209	0x3d198ed3	0.037489723
210	0x3cbf020c	0.023316406
211	0xbd2e0d0b	-0.042492907
212	0xbc7fbefd	-0.0156095
213	0xbcf406c4	-0.029788382
214	0x3ae49cdf	0.0017441771
215	0x3c20bc1a	0.009810472
216	0x3b8785c1	0.0041358178
217	0x3c6b0e4f	0.014346673
218	0xbd303c36	-0.04302617
219	0x3be3f9fb	0.00695729
220	0xbca28f8d	-0.019843841
221	0xbd2a1eaf	-0.04153317
222	0xbd190f81	-0.0373683
223	0x3ccf5f7c	0.025314085
224	0x3c748f1b	0.014926697
225	0xbd2883e1	-0.041141395
226	0xbc896533	-0.016771888
227	0xbd0bd74e	-0.034140877
228	0x3d6445d1	0.055730645
229	0xbd46aa12	-0.048502035
230	0xbaa022f5	-0.0012217449
231	0xbc9b9257	-0.018990679
232	0x392e87f7	0.00016644584
233	0xbd266c15	-0.04063042
234	0x3a9e9643	0.0012099225
235	0xbd2bc9cc	-0.041940495
236	0xbd2e340e	-0.042530112
237	0xbcde6104	-0.02714587
238	0xbd08dd97	-0.03341445
239	0xbc811c9d	-0.015760714
240	0xbd6edeaa	-0.058317818
241	0x3d482087	0.048859145
242	0x3d162cc9	0.036663804
243	0xbc18a9f9	-0.009317868
244	0xbcb39525	-0.021921704
245	0xbcd0b7d6	-0.025478285
246	0x3b8c2988	0.004277412
247	0xb9c57866	-0.00037664472
248	0x3d20add5	0.03922828
249	0x3d499aaf	0.049219783
250	0xbc5f1131	-0.013614939
251	0x3d2b7cc2	0.041867025
252	0x3d22b1e6	0.03972044
253	0xbc84a669	-0.016192632
254	0x3cd5ba83	0.026089912
255	0xbd555806	-0.0520859

fc1.bias f4 [512]
0	0xbc2e07b8	-0.0106219575
1	0xbcbc6cb8	-0.02300106
2	0x3d7479d2	0.05968649
3	0xbaf6b3ef	-0.0018821935
4	0xbd23c9a2	-0.039987214
5	0xbd0a30bf	-0.033737894
6	0xbcd736e1	-0.026271285
7	0x3d38983b	0.045067053
8	0xbd4b8b42	-0.049693353
9	0xbc553c12	-0.01301481
10	0xbd50b180	-0.050950527
11	0x3c4a6b20	0.012354642
12	0x3d5df047	0.054184224
13	0xbd5c9ae7	-0.053858664
14	0x3ce502b7	0.027955396
15	0x3d1bba76	0.03801962
16	0xbd238be3	-0.03992833
17	0x3d0877f0	0.033317506
18	0xbd3276d0	-0.04357034
19	0x3b1faebf	0.0024365631
20	0x3d59a8dd	0.053139556
21	0x3d5b4d99	0.0535408
22	0x3c9ff3ba	0.019525398
23	0xbbb41290	-0.005495377
24	0x3cba0868	0.022709087
25	0xbd715e04	-0.05892755
26	0x3d434517	0.04767331
27	0x3d3ab8a6	0.04558625
28	0x3d2b9c14	0.041896895
29	0xbd7223c3	-0.059116136
30	0xbd23207e	-0.03982591
31	0xbd5f0e85	-0.054457206
32	0x3d892904	0.06697276
33	0xbd5385c2	-0.051641233
34	0xbbfae929	-0.0076571894
35	0x3d538322	0.05163873
36	0x3cad269d	0.021136576
37	0xbcd1cc83	-0.025610214
38	0xbd40844b	-0.047001164
39	0x3c307975	0.010771145
40	0x3cf7cdc7	0.03024949
41	0xbd3f00f8	-0.046631783
42	0xbca496f3	-0.02009151
43	0xbd2ddf00	-0.042448997
44	0x3d27c4c7	0.040959146
45	0x3cc6ae1c	0.024252944
46	0x3d6ca08f	0.057770308
47	0x3d727165	0.059190173
48	0xbc9bf88c	-0.019039415
49	0xbd18e82f	-0.037330803
50	0x3bfaca25	0.007653492
51	0x3c34ca6c	0.011034589
52	0x3cc02c04	0.023458488
53	0xbcf548bc	-0.029941909
54	0x3c4009b5	0.011721064
55	0x3d4577f0	0.048210084
56	0x3d159047	0.036514547
57	0x3bef00c2	0.0072937915
58	0xbccabcb3	-0.024748182
59	0x3d530a6f	0.051523622
60	0x3d7f5645	0.062338132
61	0xbcd760af	-0.02629122
62	0xbb84ab35	-0.00404873
63	0x3d0a2b19	0.033732507
64	0x3d54143c	0.05177711
65	0x3bdb519a	0.0066930773
66	0x3d169fee	0.036773615
67	0xbd4d1807	-0.050071742
68	0x3d3a61d7	0.045503464
69	0x3b5b8a32	0.003349912
70	0xb8e38706	-0.000108493536
71	0xbc745c1e	-0.014914541
72	0xbae2a518	-0.0017291633
73	0xbcc830a2	-0.024437252
74	0x3c84e0b0	0.01622042
75	0x3d5d6eba	0.054060675
76	0x3d644edb	0.055739265
77	0x3ca60f60	0.020271003
78	0xbced61f5	-0.028977374
79	0xbc8d5b3c	-0.017255418
80	0x3c115815	0.008871098
81	0xbb2b10f7	-0.002610264
82	0xbd18c659	-0.037298534
83	0x3cea2bb0	0.028585285
84	0xbc68120b	-0.014164458
85	0xbd26d507	-0.040730502
86	0xbd229cb3	-0.03970022
87	0x3d1ba8e6	0.03800287
88	0xbd2c3ec8	-0.04205206
89	0xbd57e094	-0.05270441
90	0x3bc1272c	0.005894562
91	0xbd0be2ac	-0.034151718
92	0x3ce77c05	0.02825738
93	0x3c79f11b	0.015255238
94	0xbd5b67a9	-0.053565655
95	0xbd4586e3	-0.04822434
96	0x3d3a77c2	0.045524366
97	0xbd86f3b1	-0.06589449
98	0x3d65310e	0.055954985
99	0x3cad737e	0.021173235
100	0x3d000038	0.03125021
101	0x3d5230ae	0.051315956
102	0xbc3f7911	-0.011686579
103	0xbd3dd511	-0.046345774
104	0xbd3875c5	-0.04503419
105	0xbc40af56	-0.011760553
106	0xbd51b6dc	-0.05119978
107	0xbca6deb6	-0.020369869
108	0x3c2e4cbe	0.010638414
109	0xbd423421	-0.047412995
110	0x3d570692	0.0524965
111	0xbd1cc746	-0.03827598
112	0x3d3f5a31	0.046716873
113	0xbc9f7da1	-0.019469084
114	0xbd76a0c4	-0.06021191
115	0xbb7fe539	-0.003904654
116	0xbcb509d2	-0.02209941
117	0x3c5e3caa	0.013564268
118	0xbd85c77c	-0.06532189
119	0xbcb398bb	-0.021923414
120	0x3d369ab0	0.044581115
121	0xbd3278cf	-0.043572243
122	0x3d5caab0	0.053873718
123	0x3d014406	0.031559013
124	0x3d8c18a2	0.06840636
125	0x3d830810	0.06398022
126	0xbd2ef1f8	-0.042711228
127	0x3b40204a	0.002931612
128	0xbd212da1	-0.039350156
129	0x3ce2f51e	0.027704772
130	0x3ca25a80	0.019818544
131	0x3d6d1ccb	0.057888787
132	0xbcbc6bf7	-0.0230007
133	0x3cdb334b	0.026757857
134	0xb91ba943	-0.00014845007
135	0xbb8d240e	-0.0043072766
136	0xbbb2d060	-0.005456969
137	0xbc9eff9a	-0.01940899
138	0x3d5bae98	0.053633302
139	0xbbba4043	-0.00568393
140	0xbb16e397	-0.0023023838
141	0xbd25af30	-0.040450275
142	0x3d82fe7c	0.06396195
143	0xbd2e949a	-0.042622186
144	0xbc26fdf1	-0.01019238
145	0x3cbd37f4	0.02309797
146	0xbb68bf7b	-0.0035514522
147	0x3d010fac	0.031509086
148	0x3a08191d	0.00051917305
149	0xbd2d152d	-0.042256523
150	0xbd60d207	-0.054887798
151	0x3d7c1468	0.0615429
152	0x3c73945f	0.014866917
153	0xbbe0364a	-0.0068424093
154	0xbcef7829	-0.029232102
155	0x3be1e3cd	0.006893611
156	0xbd5b0241	-0.053468946
157	0xbd54d7db	-0.05196367
158	0x3d35bfbe	0.044372313
159	0xbd8a35d2	-0.06748547
160	0xbd401a27	-0.04689994
161	0xbd47dce7	-0.048794653
162	0x392c3e90	0.00016426505
163	0xbc8cf16d	-0.017204965
164	0xbd313bcc	-0.043269917
165	0x3cbaaf50	0.022788674
166	0x3d030558	0.031987518
167	0xbce118fe	-0.027477738
168	0x3d41e9e8	0.04734221
169	0x3c46b70b	0.012128602
170	0x3d01b3ed	0.03166573
171	0x3cb126ca	0.021624941
172	0xbc893e1e	-0.016753253
173	0x3d4bbf00	0.0497427
174	0x3d724bf3	0.059154462
175	0x3d56e7a2	0.052466996
176	0x3c176347	0.009239978
177	0x3d49404a	0.049133576
178	0xbc83aa44	-0.0160724
179	0xbccb829d	-0.024842555
180	0xbb1f7dee	-0.0024336535
181	0xbcd976a2	-0.026545826
182	0xbd047adf	-0.03234374
183	0x3d689f82	0.056792744
184	0xbd0ca575	-0.03433748
185	0x3cc3469f	0.023837386
186	0xbc7fb85d	-0.0156079205
187	0x3c8d54ba	0.017252315
188	0xbd7122ec	-0.058871195
189	0xbb3de54c	-0.0028975783
190	0xbbecd583	-0.007227601
191	0x3ce14c8f	0.027502326
192	0xbc5de2d5	-0.0135428505
193	0xbd20eb35	-0.03928681
194	0xbcbf0785	-0.023319015
195	0x3c02b5e4	0.007977936
196	0xba0c79c1	-0.0005358719
197	0x3d4c474b	0.049872678
198	0xbbe229a6	-0.0069019375
199	0x3d52a1da	0.051423885
200	0x3d4a3aa4	0.04937233
201	0xbadb8ed7	-0.0016750944
202	0xbd4559c8	-0.048181325
203	0x3d730c51	0.059337918
204	0xbd5d00e3	-0.053955924
205	0x3c295970	0.010336265
206	0xbd13e376	-0.036105596
207	0xbd49f4e9	-0.04930583
208	0x3d7c7cd3	0.06164248
209	0x3c91379b	0.01772671
210	0x3c0c7971	0.008573876
211	0xbcd4d29c	-0.025979333
212	0xbc88fa55	-0.01672093
213	0xbd390394	-0.045169428
214	0xbccc50d1	-0.02494088
215	0x3c189455	0.009312709
216	0x3d148b23	0.036265504
217	0xbd6d5fd2	-0.05795271
218	0xbd1148be	-0.035469763
219	0xbd6dce54	-0.058058098
220	0x3d1333a0	0.035937905
221	0xbc8085de	-0.015688833
222	0x3d638777	0.05554911
223	0x3c83c816	0.01608662
224	0xbc08be4b	-0.008346151
225	0xbd474491	-0.048649374
226	0xbd02efab	-0.031966846
227	0x3bd1b5da	0.006399852
228	0xbd0d84c2	-0.034550436
229	0x3d87636e	0.066107616
230	0xbd3837d0	-0.044975102
231	0x3d74332a	0.059619106
232	0x3c03c1b7	0.008041791
233	0x3c319a76	0.010840049
234	0x3d4c354d	0.04985552
235	0xbcb55e4e	-0.022139695
236	0x3d404277	0.046938386
237	0xbbc3c7ce	-0.0059747463
238	0x3d51a431	0.051181976
239	0x3d759151	0.059953038
240	0xbd34c3e2	-0.04413212
241	0xbd51ff35	-0.051268775
242	0x3c7d9b16	0.01547887
243	0x3d7abf7c	0.06121777
244	0xbba939ed	-0.005164376
245	0x3c982986	0.018574487
246	0xbc1d220a	-0.009590635
247	0xbd07a1d7	-0.033113327
248	0xbd269b04	-0.04067518
249	0x3bb6ca6e	0.0055783307
250	0x3d836ab3	0.06416836
251	0xbd03de94	-0.03219469
252	0xbd1cc729	-0.03827587
253	0x3d3bdc06	0.045864128
254	0x3c1dd64b	0.009633611
255	0x3d7ef858	0.062248558

ln1.weight f4 [512]
0	0x3f7dd58d	0.9915398
1	0x3f7def88	0.9919362
2	0x3f802e34	1.00141
3	0x3f833f53	1.02537
4	0x3f8027db	1.0012163
5	0x3f7c5b81	0.98577124
6	0x3f7ef935	0.9959901
7	0x3f7c281c	0.984987
8	0x3f7dbe65	0.99118644
9	0x3f7dfadd	0.9921091
10	0x3f7cf920	0.98817635
11	0x3f7a591e	0.9779223
12	0x3f80159a	1.0006592
13	0x3f7fc885	0.99915344
14	0x3f7e5af7	0.9935755
15	0x3f7adbc5	0.9799159
16	0x3f802746	1.0011985
17	0x3f81a993	1.0129875
18	0x3f7d7720	0.99009895
19	0x3f80083e	1.0002515
20	0x3f7b882f	0.98254675
21	0x3f776f8e	0.96654594
22	0x3f7e8410	0.9942026
23	0x3f7fedef	0.9997243
24	0x3f7e106e	0.9924382
25	0x3f7c5fba	0.9858357
26	0x3f7e5b85	0.993584
27	0x3f757d63	0.9589445
28	0x3f7d0694	0.9883816
29	0x3f80098e	1.0002916
30	0x3f804ccf	1.002344
31	0x3f80246e	1.0011117
32	0x3f7cf1ff	0.98806757
33	0x3f7fa5eb	0.99862546
34	0x3f7e8e51	0.9943591
35	0x3f80726d	1.003492
36	0x3f8007d9	1.0002395
37	0x3f7f7b4c	0.9979751
38	0x3f7e3eed	0.9931477
39	0x3f8377c1	1.0270921
40	0x3f7dd76e	0.99156845
41	0x3f817fc3	1.0117115
42	0x3f7f263f	0.99667734
43	0x3f7f6325	0.9976066
44	0x3f7dba50	0.99112415
45	0x3f7f606c	0.99756503
46	0x3f7af218	0.98025656
47	0x3f7aad21	0.97920424
48	0x3f7f8380	0.9981003
49	0x3f7ad622	0.9798299
50	0x3f7cdd2e	0.98774993
51	0x3f83b5ed	1.0289894
52	0x3f806473	1.0030655
53	0x3f7d564a	0.9895979
54	0x3f80989b	1.0046571
55	0x3f7fa6b5	0.9986375
56	0x3f7cf6fa	0.98814356
57	0x3f7fd9b6	0.99941576
58	0x3f77319e	0.96560085
59	0x3f7b7cf6	0.9823755
60	0x3f8017a5	1.0007216
61	0x3f7d8a78	0.9903941
62	0x3f7ef51b	0.9959275
63	0x3f82b6f4	1.0212083
64	0x3f7dadb5	0.9909318
65	0x3f7e5184	0.9934313
66	0x3f805b51	1.0027868
67	0x3f7d8693	0.9903347
68	0x3f801308	1.0005808
69	0x3f80c9ce	1.0061586
70	0x3f7a7ad3	0.97843665
71	0x3f7f20bd	0.9965933
72	0x3f83ebc7	1.0306329
73	0x3f7c4b18	0.98552084
74	0x3f7e9bd1	0.99456507
75	0x3f7e06ef	0.9922933
76	0x3f7f846a	0.9981142
77	0x3f7ea1f0	0.99465847
78	0x3f7efdea	0.9960619
79	0x3f7cb134	0.9870789
80	0x3f7565b3	0.95858306
81	0x3f80c6ad	1.0060631
82	0x3f7ef5dd	0.9959391
83	0x3f7fd88b	0.99939793
84	0x3f8044a7	1.0020951
85	0x3f7b49ee	0.9815968
86	0x3f7e2126	0.9926933
87	0x3f8039c8	1.0017633
88	0x3f815634	1.0104432
89	0x3f802557	1.0011395
90	0x3f7ef432	0.9959136
91	0x3f800654	1.0001931
92	0x3f8001c5	1.000054
93	0x3f80a10a	1.0049145
94	0x3f7e5bf0	0.99359035
95	0x3f7fe7b9	0.99962956
96	0x3f7d8919	0.9903732
97	0x3f8089f5	1.0042101
98	0x3f7dd1ed	0.99148446
99	0x3f7ab541	0.9793282
100	0x3f805ee7	1.0028962
101	0x3f7d57d1	0.9896212
102	0x3f7ab645	0.9793437
103	0x3f7de710	0.991807
104	0x3f7db6ff	0.99107355
105	0x3f7d4299	0.98929745
106	0x3f7f1f66	0.99657285
107	0x3f7e796a	0.99404013
108	0x3f8021dd	1.0010334
109	0x3f80aa81	1.0052034
110	0x3f84027e	1.031326
111	0x3f7defad	0.9919384
112	0x3f763eee	0.96189773
113	0x3f7dd89c	0.99158645
114	0x3f7a7210	0.97830296
115	0x3f7ec90f	0.9952554
116	0x3f7f395e	0.9969691
117	0x3f80bd9c	1.0057864
118	0x3f81726a	1.0113041
119	0x3f8220fc	1.0166316
120	0x3f80b29a	1.0054505
121	0x3f7fa4f6	0.99861085
122	0x3f804510	1.0021076
123	0x3f7d642e	0.9898099
124	0x3f7b6a28	0.98208857
125	0x3f7e4dda	0.9933754
126	0x3f7e0165	0.9922088
127	0x3f7ead9c	0.99483657
128	0x3f8050d8	1.0024672
129	0x3f7cf14b	0.98805684
130	0x3f80189d	1.0007511
131	0x3f7e0af1	0.99235445
132	0x3f7d566f	0.9896001
133	0x3f816630	1.010931
134	0x3f7c6c25	0.98602515
135	0x3f810eeb	1.0082678
136	0x3f7caedb	0.9870431
137	0x3f7c9cfd	0.98677045
138	0x3f7f9ad6	0.99845636
139	0x3f7c3132	0.98512566
140	0x3f7eee03	0.9958193
141	0x3f7be4b7	0.98395866
142	0x3f76063b	0.96103257
143	0x3f800f73	1.0004715
144	0x3f8146e1	1.0099756
145	0x3f7f79ea	0.997954
146	0x3f81ee6d	1.0150887
147	0x3f80fe8f	1.0077685
148	0x3f7ad829	0.97986084
149	0x3f79be29	0.97555786
150	0x3f7f8b1c	0.9982164
151	0x3f7d2992	0.98891556
152	0x3f77f5a7	0.9685921
153	0x3f810e11	1.0082418
154	0x3f7a403f	0.9775428
155	0x3f7ddc3a	0.99164164
156	0x3f7cee6b	0.98801297
157	0x3f7cfdb3	0.98824614
158	0x3f7eb83b	0.99499863
159	0x3f7e1b80	0.9926071
160	0x3f7eef30	0.9958372
161	0x3f802d64	1.0013852
162	0x3f788ddb	0.97091454
163	0x3f7f3a4a	0.9969832
164	0x3f7d5e5e	0.9897212
165	0x3f7f4471	0.9971381
166	0x3f7efdbe	0.9960593
167	0x3f8128b2	1.0090544
168	0x3f7d8384	0.990288
169	0x3f7f7566	0.9978851
170	0x3f7fedce	0.99972236
171	0x3f7e0819	0.99231106
172	0x3f7d7d58	0.99019384
173	0x3f80a2f7	1.0049733
174	0x3f7c815d	0.9863489
175	0x3f7e693e	0.99379337
176	0x3f78bbe7	0.97161716
177	0x3f7df736	0.9920534
178	0x3f7dd1ff	0.99148554
179	0x3f80662c	1.003118
180	0x3f7dc523	0.9912893
181	0x3f7b7291	0.9822169
182	0x3f8016ca	1.0006955
183	0x3f7f4fc9	0.9973112
184	0x3f7d5977	0.9896464
185	0x3f7f4674	0.9971688
186	0x3f80d097	1.0063657
187	0x3f7f5d96	0.99752176
188	0x3f820b6e	1.0159738
189	0x3f7edac1	0.9955254
190	0x3f74dac6	0.9564632
191	0x3f7e3c82	0.9931108
192	0x3f8147c3	1.0100025
193	0x3f7d6bd8	0.9899268
194	0x3f80ec49	1.0072109
195	0x3f7ea5a2	0.99471486
196	0x3f7d1b30	0.9886961
197	0x3f7305a7	0.949305
198	0x3f7f076c	0.996207
199	0x3f7ff5d4	0.9998448
200	0x3f7cc763	0.9874174
201	0x3f807e19	1.0038482
202	0x3f7e93b5	0.99444133
203	0x3f7f34b1	0.99689776
204	0x3f800ba7	1.0003556
205	0x3f812627	1.0089768
206	0x3f7dc4f1	0.99128634
207	0x3f815479	1.0103904
208	0x3f7c9411	0.9866343
209	0x3f800b39	1.0003425
210	0x3f7cba6f	0.98721975
211	0x3f7ea8c2	0.99476254
212	0x3f7d96ff	0.99058527
213	0x3f8392ab	1.0279135
214	0x3f7ef733	0.99595946
215	0x3f804002	1.0019534
216	0x3f808279	1.0039817
217	0x3f807567	1.0035828
218	0x3f7eb4a6	0.994944
219	0x3f7d8163	0.99025553
220	0x3f7fba63	0.9989378
221	0x3f7f554e	0.9973954
222	0x3f7f59a7	0.99746174
223	0x3f7be327	0.9839348
224	0x3f7ef752	0.9959613
225	0x3f7faac4	0.9986994
226	0x3f7c0701	0.9844819
227	0x3f7f3ffa	0.99706995
228	0x3f7c1127	0.9846367
229	0x3f780a13	0.9689037
230	0x3f7c5350	0.98564625
231	0x3f7df737	0.99205345
232	0x3f7e0a58	0.99234533
233	0x3f7f7382	0.99785626
234	0x3f8038d9	1.0017349
235	0x3f7388c1	0.95130545
236	0x3f8142b7	1.0098485
237	0x3f7e0bcd	0.99236757
238	0x3f7ee046	0.99560964
239	0x3f7e4353	0.9932148
240	0x3f7bb0e2	0.98316777
241	0x3f7d66e7	0.9898514
242	0x3f7e3d78	0.99312544
243	0x3f80938c	1.0045028
244	0x3f72d49e	0.9485568
245	0x3f7f55a3	0.99740046
246	0x3f7fc4d3	0.99909705
247	0x3f7fce8a	0.9992453
248	0x3f7bf40b	0.98419255
249	0x3f7f0e8b	0.99631566
250	0x3f7cff03	0.98826617
251	0x3f7f0e78	0.9963145
252	0x3f7e7457	0.9939627
253	0x3f7f84f3	0.9981224
254	0x3f7c66c3	0.985943
255	0x3f810479	1.007949

ln1.bias f4 [512]
0	0xbc3396b1	-0.010961221
1	0xbc1ed77b	-0.009694929
2	0xba71b68a	-0.0009220621
3	0x3a18f248	0.00058344426
4	0x398a8583	0.00026420885
5	0xbc56dd8f	-0.013114347
6	0xbba05dfc	-0.0048940163
7	0xbcacb736	-0.021083456
8	0xbbc6b1b4	-0.0060636643
9	0xbaede37b	-0.001814946
10	0xbc3e94e7	-0.011632181
11	0xbcb49743	-0.022044783
12	0xbb8aaaa7	-0.004231769
13	0xbc09048d	-0.008362901
14	0xbc3d653c	-0.011559781
15	0xbc157a6b	-0.009123425
16	0x3b3e7481	0.002906114
17	0xbb769299	-0.0037624
18	0xbc04a276	-0.008095374
19	0xbba76b92	-0.005109259
20	0xbc682b3b	-0.014170463
21	0xbcc167d8	-0.023609087
22	0xbbac9b27	-0.005267519
23	0xbbaaf796	-0.005217503
24	0xbbe384fe	-0.006943344
25	0xbc267b48	-0.0101612285
26	0xba43cd93	-0.00074692926
27	0xbd012d79	-0.031537507
28	0xbc342231	-0.01099448
29	0x3a806b81	0.0009797664
30	0x3a68b80c	0.0008877523
31	0xbbdb00d2	-0.0066834474
32	0xba074063	-0.00051594357
33	0xbb49bb1e	-0.0030781697
34	0xbb50f8c7	-0.0031886564
35	0xbbfc9bc8	-0.0077090003
36	0x3aeda382	0.0018130394
37	0xba214768	-0.0006152303
38	0xbbb35748	-0.005473051
39	0xb95242b5	-0.00020052011
40	0xbba92129	-0.0051614237
41	0xbbadf897	-0.0053091752
42	0xbbce7dfb	-0.006301639
43	0x3a8159cf	0.0009868684
44	0xbc469fc9	-0.012123057
45	0xbbdc7715	-0.006728063
46	0xbca4ef49	-0.020133631
47	0xbc8325d8	-0.016009256
48	0x3b4f1e35	0.0031603698
49	0xbc83a5c4	-0.016070254
50	0xbb2b927e	-0.0026179845
51	0xb9be2843	-0.0003626962
52	0xbb36d430	-0.002789747
53	0xbbcfcf93	-0.0063418834
54	0xbbcea42b	-0.0063061914
55	0xbb268c21	-0.0025413113
56	0xbbd649c3	-0.006539555
57	0xba5181b7	-0.00079920463
58	0xbcfd499d	-0.03091889
59	0xbc5d784f	-0.013517453
60	0xbb59a206	-0.0033208146
61	0xbc3305e9	-0.010926702
62	0x3a0138e9	0.000492944
63	0xbba44417	-0.0050129998
64	0xbc988a45	-0.01862062
65	0xbce96f37	-0.028495414
66	0xba03de79	-0.00050304044
67	0xbc0d63f0	-0.008629784
68	0x3b856e3b	0.0040719784
69	0xbadf70aa	-0.0017047126
70	0xbcaed31d	-0.021340901
71	0xbbfc21ea	-0.0076944726
72	0x39639fde	0.00021707962
73	0xbc4399b9	-0.011938506
74	0xbba4f92c	-0.0050345864
75	0xbbfc4996	-0.007699202
76	0xbb9c668d	-0.004772967
77	0xbbe01ff9	-0.006839749
78	0xbc02aa3d	-0.007975158
79	0xbc07ea8a	-0.008295665
80	0xbd3559a3	-0.044274937
81	0xbbe4fc0a	-0.006988053
82	0xb9168ebb	-0.00014358286
83	0x3ab5cf2a	0.0013870944
84	0xbb3e6c45	-0.0029056233
85	0xbc6b8890	-0.014375821
86	0xbbc53220	-0.0060179383
87	0xbb6ea2fe	-0.003641307
88	0xb9a46c51	-0.0003136122
89	0x3a84c8d1	0.0010130649
90	0xbc4620df	-0.012092798
91	0x3b961e2d	0.004581234
92	0xbc02b6f6	-0.007978192
93	0xbab1a8fb	-0.0013554388
94	0xbc685b7e	-0.01418197
95	0xbba53faf	-0.005042992
96	0xbc250e7a	-0.010074252
97	0xbc09061f	-0.008363276
98	0xbbe3e635	-0.006954933
99	0xbc9a881b	-0.018863728
100	0xbbb7721f	-0.005598321
101	0xbbebd8a5	-0.007197457
102	0xbc3fb424	-0.011700664
103	0xbbddc20c	-0.006767517
104	0xbbf0c8cb	-0.007348155
105	0xbb9b51d0	-0.0047399774
106	0xbb74ec59	-0.003737232
107	0xbc034f31	-0.008014486
108	0xb8b8356f	-8.7837565e-05
109	0x3b6de67c	0.003630071
110	0xbb18f595	-0.0023339738
111	0xbb647951	-0.003486235
112	0xbcd22092	-0.025650296
113	0xbb4baf30	-0.0031079762
114	0xbca97c7f	-0.020689247
115	0x3b65e964	0.0035081739
116	0xbc55bd52	-0.013045626
117	0xbbc248a1	-0.005929068
118	0xbb35c4dd	-0.0027735748
119	0x3b5e748f	0.0033943986
120	0xbbbcefa7	-0.0057658735
121	0xbb3bbab5	-0.0028645222
122	0xba10f240	-0.0005529262
123	0xbbb6a2f3	-0.0055736243
124	0xbc53cd97	-0.012927434
125	0xbb88f6fd	-0.004179834
126	0xbb1224f7	-0.0022299865
127	0xbbc5899e	-0.006028368
128	0xbbde041b	-0.0067753918
129	0xbbd0b95b	-0.0063697523
130	0xbb494830	-0.0030713193
131	0xbbace1b6	-0.0052759303
132	0xbc0ee657	-0.0087219095
133	0x3b6bba38	0.003596915
134	0xbbc9bce6	-0.0061565517
135	0x3a1f653a	0.00060804526
136	0xbca007fb	-0.019535055
137	0xbc3a9d00	-0.011389971
138	0xbc3ad29d	-0.011402753
139	0xbc8f491f	-0.017490922
140	0x392b23a6	0.00016321111
141	0xbc5ffac5	-0.013670628
142	0xbd0a1e86	-0.033720516
143	0xba840b0d	-0.0010074094
144	0x3b2b883f	0.0026173738
145	0xbc1e3f7f	-0.009658693
146	0xba2f93be	-0.00066977355
147	0xbb86e9fc	-0.0041172486
148	0xbc81e621	-0.015856804
149	0xbcbee73f	-0.023303626
150	0x3b08a610	0.0020850934
151	0xbc51cd82	-0.012805345
152	0xbcf97fb6	-0.030456405
153	0x3af65736	0.0018794301
154	0xbc895e20	-0.016768515
155	0xbbf38f24	-0.007432835
156	0xbbbeee00	-0.0058267117
157	0xbb4a6d18	-0.003088778
158	0xbb9ea989	-0.0048419875
159	0xbbfb6313	-0.0076717227
160	0xbb1030df	-0.0022001786
161	0xbc0cf74c	-0.008603882
162	0xbcc81ce4	-0.024427839
163	0xbb27f0bd	-0.002562567
164	0xbc1d7c4c	-0.009612154
165	0xbbd280cf	-0.0064240466
166	0xba5e941e	-0.0008490699
167	0x3b76b056	0.0037641726
168	0x3bf70e07	0.007539514
169	0xbba59a90	-0.0050538257
170	0xb97ed6c1	-0.0002430333
171	0xbbbf4ad1	-0.005837776
172	0xbbe355de	-0.0069377264
173	0xb98807bf	-0.00025945713
174	0xbc2b6e44	-0.010463301
175	0xbba31d63	-0.0049778684
176	0xbce602cf	-0.028077511
177	0xbac3c2e4	-0.0014935401
178	0xbc45331c	-0.012036111
179	0xbbce632e	-0.0062984442
180	0xbbc6449b	-0.006050659
181	0xbc71ee8b	-0.014766346
182	0x3aca46c6	0.0015432469
183	0xbbba2fb9	-0.0056819585
184	0xbbf9573f	-0.0076092775
185	0xbbf4d9da	-0.007472259
186	0xb98b92f3	-0.00026621632
187	0x3b092553	0.0020926788
188	0xbb34ccd6	-0.0027587912
189	0xba8005ff	-0.0009767412
190	0xbd132f2a	-0.03593365
191	0xbbab326c	-0.0052245166
192	0x3aec995a	0.0018051073
193	0x396497ea	0.00021800367
194	0xbc020348	-0.007935353
195	0xbafad5be	-0.0019137186
196	0xbc7a6b99	-0.015284442
197	0xbd22b300	-0.03972149
198	0xbbf014aa	-0.007326682
199	0x399fe21a	0.00030495302
200	0xbc2ceafa	-0.01055407
201	0x3a753e95	0.0009355334
202	0xbc093166	-0.008373594
203	0xbabe547c	-0.0014521028
204	0x3a058a67	0.0005094171
205	0xbbbd1992	-0.0057708705
206	0xbc2aa003	-0.010414126
207	0xbb7a1283	-0.0038158007
208	0xbc0484d2	-0.008088307
209	0x3a44cf9d	0.00075077434
210	0xbc04f058	-0.008113943
211	0xba078c81	-0.0005170778
212	0xbc1d8298	-0.0096136555
213	0x3ada1cfc	0.0016640718
214	0xbaf87bf5	-0.001895784
215	0x391f251c	0.00015177246
216	0xbb833084	-0.0040035862
217	0x3af4f355	0.0018688241
218	0xbb890463	-0.004181431
219	0xbb8e6ae9	-0.004346241
220	0xbb3185c1	-0.002708778
221	0xbbd28796	-0.0064248545
222	0xbb41d7fe	-0.0029578204
223	0xbc563783	-0.013074758
224	0xbc2438ef	-0.01002334
225	0xbb8989ce	-0.004197336
226	0xbc95dd49	-0.018293994
227	0xbb56dcca	-0.003278541
228	0xbc9f6e7b	-0.01946186
229	0xbc957b62	-0.01824731
230	0xbc5ed9e7	-0.013601757
231	0xbb8b0d42	-0.004243524
232	0x39fa3171	0.00047720553
233	0xbb72d1eb	-0.003705139
234	0xbb9f0725	-0.0048531466
235	0xbd199fe3	-0.037505995
236	0xbafd0451	-0.0019303655
237	0xbc0b0e9c	-0.00848737
238	0xbbbcc99b	-0.005761338
239	0xbb3f3427	-0.0029175372
240	0xbc676735	-0.014123728
241	0xbc166c2c	-0.009181064
242	0xbbf7b6ec	-0.007559648
243	0x3aaaf8d7	0.0013044131
244	0xbd35477d	-0.04425763
245	0xbb94d5df	-0.004542097
246	0xba8e53a8	-0.0010858672
247	0x3ac882b8	0.0015297746
248	0xbc985909	-0.018597143
249	0xbbc74984	-0.006081762
250	0xbc88b72b	-0.016688904
251	0xbb43380d	-0.0029788048
252	0xbc11ab37	-0.008890918
253	0xbbd89f52	-0.0066107893
254	0xbc54fdf5	-0.013000001
255	0xbb15cd19	-0.0022857843

fc2.weight f4 [2, 512]
0	0x3c3dc3f9	0.011582368
1	0xbcb3a928	-0.021931246
2	0xbd0d4530	-0.03448981
3	0xbbea7b83	-0.007155837
4	0xbd25b297	-0.04045352
5	0xbcda677b	-0.026660671
6	0x3c1a1e79	0.009406679
7	0x3be51d1d	0.006991996
8	0x3ce83bfb	0.028348913
9	0x3d0775c4	0.033071294
10	0x3bfe8ea9	0.0077684713
11	0x3a981121	0.0011601784
12	0xbca11adf	-0.019666133
13	0xbb25a879	-0.002527742
14	0x3cfbc823	0.030735081
15	0x3d037750	0.032096207
16	0xbd28be37	-0.041197028
17	0x3d49cc5c	0.049267158
18	0xbb003f0c	-0.001956883
19	0xbc2c5b59	-0.010519826
20	0xbca3211a	-0.019913245
21	0x3d17b3b5	0.037036616
22	0xbc0f3e25	-0.008742844
23	0xbd239cfa	-0.039944626
24	0x3cd48957	0.025944395
25	0x3b6331a4	0.003466704
26	0xbcb384e5	-0.021913955
27	0x3d22dd99	0.039762113
28	0x3ac105b2	0.0014726429
29	0xbcd1700b	-0.025566122
30	0xbcdd1acb	-0.026990315
31	0xbd057185	-0.032578964
32	0x3c957dbf	0.018248437
33	0xbcf376a1	-0.029719653
34	0xbb86a9a5	-0.0041095787
35	0x3cb893a4	0.022531338
36	0xbcc3e402	-0.023912434
37	0xbca71e28	-0.020400122
38	0x3cc3e2c4	0.023911841
39	0xbd2bd2c4	-0.04194905
40	0xbc52e364	-0.012871597
41	0xba6b6d27	-0.00089808035
42	0x3ccef2fa	0.025262345
43	0x3ccd379c	0.02505093
44	0xba66b726	-0.0008801095
45	0x3cd75dd2	0.026289854
46	0x3b1038fb	0.002200662
47	0x3ccd61fc	0.025071137
48	0xbca1a62d	-0.01973256
49	0xbae97171	-0.0017810297
50	0x3c8dfc2b	0.017332157
51	0xbcb81750	-0.022472054
52	0xbd1966ac	-0.03745143
53	0xbccd153c	-0.02503454
54	0xbb10872f	-0.0022053232
55	0xbd1b2804	-0.03787996
56	0x3ca2ee8e	0.019889142
57	0xbb605060	-0.0034227595
58	0x3b0138dc	0.0019717729
59	0xbcd68e20	-0.026190817
60	0xba940ac7	-0.0011294716
61	0x3d080d67	0.033215906
62	0xbd0da8d0	-0.03458482
63	0xbd530a69	-0.0515236
64	0x3d106ed6	0.03526195
65	0xbcf2c11d	-0.0296331
66	0xbc104b91	-0.008807079
67	0x3c98d94f	0.018658308
68	0x3c4cddbc	0.0125040375
69	0xbb2c2d48	-0.0026272107
70	0xbcc840cc	-0.02444496
71	0x3c70b005	0.014690404
72	0x3d4f1be3	0.050563704
73	0xbcd1f956	-0.025631588
74	0x3d1ce9b1	0.038308803
75	0x3d1548d1	0.036446396
76	0x3d0d210e	0.03445535
77	0x3d1b4105	0.037903804
78	0xbca8e051	-0.020614775
79	0xbc7792ee	-0.015110714
80	0xbd2b60d7	-0.0418404
81	0x3c9622d7	0.01832716
82	0xbc96038e	-0.018312242
83	0xbd32d016	-0.043655477
84	0xbb3c749c	-0.0028756028
85	0xbc8319a4	-0.016003437
86	0x3d22e476	0.03976866
87	0xbd277ffe	-0.040893547
88	0xbc9e500e	-0.019325282
89	0xbc808bbc	-0.01569163
90	0x3cc3fe38	0.023924932
91	0xbca30c07	-0.019903196
92	0x3cdc6969	0.026905732
93	0xbccdc3a9	-0.025117712
94	0x3d1bb630	0.038015544
95	0x3c91f015	0.017814675
96	0xbc82cbd7	-0.015966339
97	0x3d258ce7	0.040417578
98	0xbc9ab9a0	-0.018887341
99	0x3cf04bcd	0.02933302
100	0xbd2e6a47	-0.042581823
101	0xbca40a06	-0.02002431
102	0xbd234f97	-0.039870825
103	0xbcb5f05e	-0.022209343
104	0x3ca598bb	0.02021443
105	0xbcb77411	-0.022394212
106	0x3ce4e4ae	0.027941074
107	0x3d14d81e	0.036338918
108	0xbc0dcdc1	-0.008655013
109	0xbca8992a	-0.020580847
110	0xbd84f4cc	-0.06492004
111	0xbcd36106	-0.0258031
112	0xbca8f68b	-0.020625373
113	0x3cefc22e	0.029267397
114	0xbcf6a0b7	-0.030105932
115	0xbcbcca9f	-0.023045836
116	0x3c539ec4	0.012916271
117	0x3bfd5eb5	0.007732237
118	0xbccf3942	-0.025295857
119	0xbc92db89	-0.017926948
120	0xbd210201	-0.03930855
121	0xbcadd80e	-0.021221187
122	0xbbecd9af	-0.0072280983
123	0xbba9fe07	-0.005187753
124	0xbccd36d1	-0.025050553
125	0xbc225b56	-0.0099094715
126	0xbcc55bd7	-0.024091644
127	0x3c4df49c	0.012570526
128	0xbd223a65	-0.03960647
129	0x3cb6130e	0.022225883
130	0x3c4a31a6	0.012340939
131	0x3c2d2486	0.01056779
132	0xbc5c7da5	-0.01345769
133	0xbc9d0fac	-0.019172512
134	0x3b82f66d	0.0039966614
135	0xbd3aafe2	-0.04557789
136	0x3cd6b832	0.026210878
137	0xbc5c55a4	-0.013448153
138	0x3d139f91	0.036040846
139	0xbc1a6330	-0.009423062
140	0xbd2c5229	-0.04207054
141	0x3d012513	0.031529497
142	0xbce25276	-0.027627211
143	0xbc671fba	-0.014106685
144	0xbcd7b477	-0.02633117
145	0x3a5e0b43	0.0008470306
146	0xbd498f3a	-0.049208857
147	0xbcfa990b	-0.030590555
148	0xbd2f858e	-0.042851977
149	0xbca7cad4	-0.020482458
150	0xbd0682a4	-0.032839432
151	0x3d0bec05	0.034160633
152	0xbce71f8a	-0.028213281
153	0xbb772136	-0.0037709004
154	0xbc8dc74c	-0.017306946
155	0x3ce713fb	0.02820777
156	0xbbab340d	-0.005224711
157	0x3be15f52	0.006877818
158	0xbba93ac0	-0.0051644742
159	0xbd3c8ce7	-0.046032812
160	0xbc95f432	-0.018304918
161	0x3cc66709	0.024219053
162	0x3ce40082	0.027832273
163	0xbcec223d	-0.02882492
164	0x3b4af11a	0.0030966462
165	0x3c493196	0.012279889
166	0xbd14d380	-0.036334515
167	0xbd5ac5e6	-0.053411387
168	0xbc154772	-0.009111272
169	0x3cd1317c	0.025536291
170	0xbc4e3c29	-0.0125875855
171	0x3cb55815	0.022136727
172	0x3ccd9971	0.02509758
173	0x3b2fc446	0.002681987
174	0x3d0aedb1	0.033918086
175	0xbd16b9ed	-0.036798406
176	0x3c15b765	0.009137963
177	0x3c978ee8	0.01850076
178	0xbc2f1b82	-0.010687711
179	0xbcf3407c	-0.029693834
180	0x3c268e39	0.010165744
181	0x3d0a645c	0.033787116
182	0xbc3142e1	-0.010819168
183	0x3c8aef6e	0.016959872
184	0xbabcd5a3	-0.001440693
185	0x3cfc0f27	0.030768944
186	0x3cfbc4b6	0.030733448
187	0xbcf2dd39	-0.029646503
188	0xbc479dbd	-0.012183604
189	0xbbeefc2a	-0.007293244
190	0xbc77bcf2	-0.015120732
191	0x3cc4fec1	0.024047257
192	0xbd0a2adf	-0.03373229
193	0xbc83799d	-0.0160492
194	0xbd1d78c1	-0.038445238
195	0x3c8f0b05	0.01746131
196	0x3cb874e4	0.022516675
197	0xbd01489d	-0.03156339
198	0x3d26a665	0.04068603
199	0xbd293e3d	-0.04131912
200	0xbbad4182	-0.00528735
201	0x3cbbe354	0.022935547
202	0xbc4be395	-0.0124443965
203	0xbc967e4f	-0.018370776
204	0x3ca5ec5f	0.020254312
205	0xbd428a59	-0.04749522
206	0x3b6646d5	0.0035137434
207	0xbd4ee3b7	-0.050510135
208	0xbd272252	-0.040804215
209	0xbceb1c2b	-0.028699955
210	0x3cea0543	0.028566962
211	0x3bec70ff	0.0072156186
212	0x3d091114	0.033463553
213	0x3cfd0257	0.030884905
214	0xbd067ed4	-0.032835796
215	0xbcfc8fbd	-0.030830259
216	0xbc46e675	-0.012139906
217	0xbcb2cfdd	-0.021827633
218	0x3d2397d9	0.039939735
219	0x3c1501ed	0.009094697
220	0xbbab1aae	-0.0052216863
221	0x3c0287a4	0.00796691
222	0x3c4f2d3b	0.012645061
223	0xb8dc3a75	-0.00010501306
224	0x3ce690ef	0.028145282
225	0xbcaa5318	-0.020791575
226	0xbc741d3e	-0.01489955
227	0x3d02f960	0.031976104
228	0xbc9d0efb	-0.019172182
229	0xbd18b7dc	-0.037284717
230	0xbba49126	-0.005022186
231	0xbca8f152	-0.020622883
232	0x3d09ada3	0.03361286
233	0x3cfafd34	0.030638315
234	0x3d241805	0.04006197
235	0x3c2bfdcb	0.010497521
236	0xbd1f2d1a	-0.03886137
237	0x3b5e2390	0.0033895709
238	0x3c950b4a	0.01819386
239	0x3d024044	0.03179957
240	0xbc819da6	-0.015822243
241	0xbc4a1fc1	-0.012336672
242	0xbcfab438	-0.030603513
243	0x3cc00a94	0.023442544
244	0x3d1b838e	0.037967257
245	0x3cb9eb23	0.02269513
246	0x3c534db5	0.012896945
247	0xbd291c64	-0.04128684
248	0x3d0c6b7c	0.034282193
249	0x3cc38e46	0.023871552
250	0x3cf2bbda	0.02963059
251	0xbc4a131d	-0.0123336585
252	0x3c4e6bbd	0.012598929
253	0xbc2c224f	-0.010506227
254	0xbcbf2a6b	-0.023335656
255	0x3d4e5ff6	0.050384484

fc2.bias f4 [2]
0	0xba8108f8	-0.0009844592
1	0xbcc91453	-0.024545824
